notebooks/deep_learning/language_model.pth (torch, 3089 bytes, 7 tensors)

embedding.weight f4 [13, 2]
0	0xbe033fec	-0.12817353
1	0x3f8054ed	1.0025917
2	0xc00a6300	-2.1622925
3	0xc00a2204	-2.1583261
4	0x3fca2162	1.5791438
5	0x401397db	2.3061435
6	0x3f605479	0.87628895
7	0xc053037b	-3.2970874
8	0xbe677471	-0.22603013
9	0xbf86bea8	-1.0526934
10	0xc01450a6	-2.3174224
11	0xbfcfb351	-1.6226598
12	0xc015c172	-2.339932
13	0xbfbf9c2c	-1.4969535
14	0xbe8f2008	-0.27954125
15	0xbf713592	-0.94222367
16	0xbfa0a70b	-1.2550977
17	0x3edfbee6	0.4370033
18	0xbf86e2f3	-1.053801
19	0x3f386e1f	0.7204303
20	0xc000011c	-2.0000677
21	0xc0690f6c	-3.6415663
22	0xbebb0606	-0.36528033
23	0xbf40200b	-0.75048894
24	0x40499a34	3.1500368
25	0xbf356695	-0.7085965

rnnlayer.weight_ih_l0 f4 [2, 2]
0	0xbfc39553	-1.5279945
1	0xbf3fc64d	-0.7491196
2	0xbe555cb2	-0.20836142
3	0x3f9527f7	1.1652821

rnnlayer.weight_hh_l0 f4 [2, 2]
0	0xbf5cc2e9	-0.8623491
1	0x3e8d6008	0.2761233
2	0xbec65336	-0.3873536
3	0xc0376e3d	-2.8661034

rnnlayer.bias_ih_l0 f4 [2]
0	0xbedc558c	-0.43034017
1	0x3e3ffd6a	0.18749014

rnnlayer.bias_hh_l0 f4 [2]
0	0xbe6566d9	-0.22402515
1	0xbd8727ae	-0.06599365

clf.weight f4 [13, 2]
0	0x405015b1	3.251324
1	0xc094b6e1	-4.647324
2	0xc02d44a6	-2.707315
3	0x4010658c	2.256198
4	0xc07a85b8	-3.9144115
5	0xc02da9af	-2.7134817
6	0x4026012a	2.593821
7	0x40023afd	2.0348504
8	0x40256015	2.5839894
9	0x4004dca0	2.075966
10	0xc030171c	-2.7514105
11	0x4013c5b8	2.3089428
12	0xc02b5d59	-2.6775725
13	0x4016b70e	2.3549228
14	0x40238d61	2.555504
15	0x4004bdad	2.074077
16	0x41344c30	11.2686
17	0xc0a36a23	-5.106706
18	0xc07a3549	-3.9095023
19	0xc0310a92	-2.7662702
20	0xc0261732	-2.5951657
21	0x400f83a4	2.2424097
22	0x4024264e	2.564838
23	0x4001f67e	2.0306697
24	0x3e27c330	0.16383052
25	0xbeb4c721	-0.35308173

clf.bias f4 [13]
0	0x40023f9c	2.0351324
1	0xbe0bfe84	-0.13671309
2	0x3e48c8c9	0.19607843
3	0x3ed5d5fa	0.41764814
4	0x3ec79fc3	0.38989076
5	0xbe7486ff	-0.23879622
6	0xbe43d776	-0.1912516
7	0x3ece40e8	0.40283895
8	0xc0308cd2	-2.758595
9	0x3e0a0d0e	0.13481542
10	0xbb779e92	-0.0037783724
11	0x3ee2cf3f	0.4429874
12	0xc063ca5a	-3.5592256
